project_experiments/text/imdb/imdb_model.pt (torch, 978601 bytes, 3 tensors)

embed.weight f4 [30522, 8]
0	0xbfbc9d60	-1.4735527
1	0xbea21279	-0.3165472
2	0x3f99379d	1.1970097
3	0xbf0f08c3	-0.55872744
4	0x3f33b361	0.70195585
5	0xbf95888b	-1.1682295
6	0x3e93b3d7	0.28848144
7	0xbf6af4da	-0.91779864
8	0x3f7441aa	0.95412695
9	0xbdecb9c4	-0.115588695
10	0x3fbc4aa1	1.4710275
11	0x3e122525	0.14271982
12	0x3cd5b650	0.02608791
13	0x3a734609	0.00092801504
14	0xbf24e8c1	-0.64417654
15	0xbf945f1f	-1.1591529
16	0x3f2da0b7	0.67823356
17	0x3f683dd9	0.9071937
18	0x3f659c3e	0.8969153
19	0xbf84e3f7	-1.0382069
20	0x3f02195b	0.5081994
21	0x3fa0d0ae	1.2563684
22	0xbfa152fa	-1.2603447
23	0xbe7a8e73	-0.24468403
24	0xbf57d637	-0.8431124
25	0x3f254ccf	0.64570326
26	0xbf49209a	-0.7856537
27	0x3ef97fc8	0.48730302
28	0xbf91b80f	-1.1384295
29	0xbfad77f6	-1.3552234
30	0x3f633611	0.88754374
31	0x3de112ff	0.10989951
32	0xbd5d078e	-0.053962283
33	0x3fc206f2	1.515837
34	0xbf403b45	-0.7509044
35	0xbeaa5804	-0.33270276
36	0xbd1deede	-0.03855788
37	0x3f793aa9	0.97355133
38	0xbefec228	-0.49757504
39	0x3f0ded90	0.55440617
40	0xbf73d773	-0.95250624
41	0x3fb8d5b4	1.4440217
42	0xbde6c54b	-0.112680994
43	0xbf0e6b44	-0.55632424
44	0xbfac0ac3	-1.3440784
45	0x3f0a59e3	0.54043406
46	0xbe107e81	-0.14110757
47	0xbf773d18	-0.96577597
48	0x3ee4cf40	0.4468937
49	0xbfc8fed4	-1.5702767
50	0xbe4fc402	-0.20289615
51	0xbfa71886	-1.3054359
52	0x3fbd95eb	1.4811376
53	0xbe8fe2b0	-0.28102636
54	0xbf5b6efe	-0.85716236
55	0x3dcfde48	0.10149819
56	0xbf87a9c9	-1.0598689
57	0xbda71011	-0.08157361
58	0x3e8805fe	0.26567072
59	0x3e0d4100	0.13794327
60	0xbfe93c04	-1.822144
61	0xbf3a061a	-0.7266556
62	0xbe17f92e	-0.14841148
63	0x3fa15ef6	1.2607105
64	0xbfa3f4f8	-1.2809134
65	0xbf8818c6	-1.063256
66	0x3f071bba	0.5277668
67	0x400e65eb	2.2249706
68	0xc039f055	-2.9052937
69	0x3f4b9047	0.79517025
70	0xbec31b19	-0.3810661
71	0xbe901cb0	-0.28146887
72	0xbe41bcb1	-0.18919636
73	0xbf491ab8	-0.78556395
74	0x3f493ec8	0.7861142
75	0x3f8b787b	1.0896143
76	0x3f7d80f8	0.99024916
77	0x3eba73d7	0.36416504
78	0x3eba1daf	0.36350772
79	0xbef79217	-0.48353645
80	0x3ff32ee4	1.8998685
81	0x3fa92648	1.3214808
82	0x3ebcee25	0.3690044
83	0xbcb83d8b	-0.022490283
84	0xbf7723a8	-0.9653878
85	0x3f3beda4	0.73409486
86	0x3fc53b65	1.5408751
87	0xbf2f56bb	-0.68491715
88	0xbf1299c5	-0.57265884
89	0xbd7afd31	-0.06127662
90	0x3ecb4382	0.39699942
91	0x3dd9ca47	0.106342845
92	0xbf61b76e	-0.88170516
93	0xbe9a139d	-0.3009309
94	0xbf895807	-1.0729989
95	0xbf7a31e7	-0.97732395
96	0x3fef765e	1.8707998
97	0x3fda8034	1.7070374
98	0xbedad33f	-0.42739293
99	0xbe19cb8d	-0.15019055
100	0x3f05826d	0.5215214
101	0xbe13e809	-0.14443983
102	0xbf317c00	-0.69329834
103	0x3efcea09	0.49397305
104	0xbc0ea4e8	-0.008706309
105	0x3fc1aa17	1.5130032
106	0x3fca7d80	1.581955
107	0x4009aec7	2.1512926
108	0xc0584009	-3.3789084
109	0x3f9f7c1b	1.2459749
110	0xbeb1bc58	-0.34714007
111	0xbfc657cc	-1.5495543
112	0xbff89604	-1.9420781
113	0x3f8c7eae	1.097616
114	0xbf45350f	-0.77034086
115	0x3fc1d96d	1.5144478
116	0x3fbabce5	1.4588896
117	0xbee26a94	-0.44221938
118	0x3f37daa9	0.71818024
119	0xbfdc1e87	-1.7196816
120	0xbec35148	-0.3814795
121	0x3f71c71e	0.94444454
122	0x3ccbcfd8	0.024879381
123	0xbdfdb111	-0.12387288
124	0x3ef195f7	0.47184727
125	0xbea0bcd7	-0.31394073
126	0x3e6ae6c4	0.22939593
127	0x3f34021c	0.7031572
128	0x3ef246b6	0.47319573
129	0xbf92c152	-1.1465247
130	0xbd7dce8a	-0.06196455
131	0xbf3ec992	-0.7452632
132	0xc00d2f06	-2.205995
133	0x3e8a901e	0.27063078
134	0x3fb431dc	1.4077716
135	0x3ec06a6b	0.3758119
136	0x3e422337	0.18958746
137	0x3f43ef59	0.7653709
138	0x3fd2172e	1.6413324
139	0x3eef2463	0.46707448
140	0x3fa36bcd	1.2767273
141	0xbf252331	-0.6450682
142	0xbfbcbac4	-1.4744496
143	0xbe30f4bc	-0.17280859
144	0xbe614b67	-0.2200142
145	0xbfa16d27	-1.2611436
146	0x3f703783	0.93834704
147	0x3ec65112	0.38733727
148	0xbe830a73	-0.2559391
149	0xbf9aba3e	-1.2088087
150	0x3bf723ac	0.007542094
151	0xbf0a917e	-0.54128253
152	0x3f8e5197	1.1118649
153	0x3f73a42d	0.9517239
154	0xbf40713a	-0.7517277
155	0x3f57771c	0.8416612
156	0xbf68c253	-0.90921515
157	0xbf5ab246	-0.85428274
158	0xbf88ff01	-1.0702821
159	0xbedbba79	-0.42915705
160	0x3dc58ffd	0.09646604
161	0x3eb62444	0.35574543
162	0xbda5c8c9	-0.08094937
163	0xbe95fd9b	-0.29295048
164	0xbfc2d0c8	-1.5219965
165	0x3e7e105b	0.24810927
166	0xbed3988a	-0.41327316
167	0xbfdc05f8	-1.7189322
168	0x3ff31553	1.8990883
169	0x3e489653	0.19588594
170	0x3efe4c58	0.4966762
171	0xbf499727	-0.78746265
172	0x3fa669c7	1.3001031
173	0xbfd60cce	-1.6722658
174	0xbeebb670	-0.46037626
175	0xbcba4c4b	-0.022741457
176	0x3febfa02	1.8435671
177	0xbe85e408	-0.26150537
178	0x3eb37db3	0.35056838
179	0x3fa8ec54	1.3197122
180	0x3f3e1d99	0.7426391
181	0x3ca18716	0.019717734
182	0xbee7b76e	-0.45257133
183	0x3f6844f6	0.90730226
184	0xbe8db825	-0.27679554
185	0xbdd26eba	-0.10275026
186	0xbd644e80	-0.055738926
187	0x3f82fe21	1.0233804
188	0x3e222340	0.1583376
189	0xbee45702	-0.44597632
190	0xbfa6afc6	-1.3022392
191	0xbf8b40f1	-1.0879194
192	0x3e889977	0.26679584
193	0x401c38e1	2.4409716
194	0xbe0c19fd	-0.13681789
195	0x3f834ce7	1.0257844
196	0x3f03cadb	0.5148141
197	0xbf741ad6	-0.9535345
198	0x3ebeaa78	0.37239432
199	0xbf4f6e20	-0.8102741
200	0xbfa98c6c	-1.3245978
201	0xbf19a00d	-0.60009843
202	0xbdb06617	-0.08613222
203	0x3ff05ce9	1.8778354
204	0x3fd19f13	1.6376671
205	0xc011929b	-2.274573
206	0x3f818336	1.0118167
207	0xbf3a2e00	-0.7272644
208	0x3d73bbfb	0.059505444
209	0x3e9e6f29	0.30944183
210	0xbf5a5389	-0.85283715
211	0xbe52b66d	-0.20577402
212	0x3e4b2231	0.19837262
213	0x3f74bd1f	0.95601076
214	0x3ebd537a	0.3697775
215	0xbf2aa646	-0.66659963
216	0x3f7ebb6c	0.99504733
217	0x3f1024de	0.56306255
218	0xbf16164b	-0.58627766
219	0x3e1d65a7	0.15370809
220	0xbd56c424	-0.052433148
221	0x3f2b35fb	0.6687924
222	0x3f098cac	0.53730273
223	0xc004f840	-2.077652
224	0x3e931551	0.287272
225	0xbf303809	-0.688355
226	0xbf652e3d	-0.8952368
227	0xbf88cc57	-1.068736
228	0x3fc2a1eb	1.5205663
229	0x3f790294	0.9726956
230	0xbfff9fcf	-1.9970645
231	0xbf8d9652	-1.1061499
232	0xbf9acb8b	-1.2093366
233	0xbfd09d80	-1.6298065
234	0x3f2cb11f	0.67457765
235	0x3e93862f	0.2881331
236	0xc0292133	-2.6426513
237	0xbf99708d	-1.1987473
238	0x3f0fefd8	0.5622535
239	0xbedba806	-0.4290163
240	0x3f96cb30	1.1780758
241	0xbf029d56	-0.51021326
242	0xc0172877	-2.3618448
243	0x3f12c46d	0.5733097
244	0xbe96fdef	-0.2949061
245	0x3f6af341	0.91777426
246	0xbf0cb4d8	-0.54963446
247	0x3f113983	0.5672838
248	0x3f724a1f	0.9464435
249	0x3f4ad4f4	0.7923119
250	0x3d72197c	0.059106335
251	0xbfa8cef6	-1.318816
252	0x3eab10ab	0.33411154
253	0x3d78feab	0.060789745
254	0x3f2dba65	0.6786254
255	0xbf9b9bb3	-1.2156891

classifier.weight f4 [2, 8]
0	0x3d1b2b54	0.037883118
1	0xbf54a10a	-0.83058226
2	0xbefa952b	-0.4894193
3	0xbf28e23c	-0.65970206
4	0x3f2663ad	0.64995843
5	0x3f2e9863	0.68201274
6	0xbf02c032	-0.51074517
7	0x3edf6312	0.43630272
8	0x3e870ef0	0.26378584
9	0x3ec32f3a	0.38121969
10	0x3f0a0d9d	0.5392702
11	0x3f1bf151	0.60915095
12	0xbe98a57e	-0.2981376
13	0xbe3939f9	-0.18088521
14	0x3ed1d469	0.4098237
15	0xbedfece8	-0.43735433

classifier.bias f4 [2]
0	0x3e4ced0a	0.20012298
1	0x3db7d736	0.08976595
